p1_navigation/checkpoint.pth (torch_old, 28417 bytes, 6 tensors)

fc1.weight f4 [64, 37]
00000000: 1956 55bd 04ec 0bbd a762 50bd ec98 c9bc
00000010: e919 05bd b050 61bc 2fb2 943d f4c0 0cbc
00000020: cefc 073e 516a 2b3e 0593 d8bd b4e1 8abc
00000030: b659 7f3d d9e4 063e 6b94 4f3e 5262 073b
00000040: 3242 b83c 2b58 2d3d ddf8 2f3d e552 17bd
00000050: 3368 c1bd c076 583d 4a4b 923d c861 903d
00000060: 2683 b93d f8c0 9e3b ce38 fb3b 48a2 c63d
00000070: 3d73 2a3e 80a6 f23d b1af 7e3e 1d2f 3bbf
00000080: 7658 35bf 7380 24bf 719a 09c0 9bcc f9ba
00000090: 918f cdba 8f73 34bd 36f5 3e3e bc99 103e
000000a0: 4516 ff3d b785 b93d 3123 55be 3282 023e
000000b0: 5e60 dabd 9712 b33d da3d 85bd 41f1 37bb
000000c0: c58a 43bd 496c f13d 18f2 2c3e bc83 ab3d
000000d0: 7f2d e43d 58f9 a23d 70e3 ae3d f3e5 2a3d
000000e0: 895a 05be a9b1 2dbd 9c60 eabc 6ac1 a83c
000000f0: cbff a1bd f7ed 4b3d edca bc3e e7a8 e8be
00000100: 4d84 14be 4afa 26be 9a54 bebf 6859 65be
00000110: 9f04 f13d bd29 2a3e 6358 5c3d 154d 7cbe
00000120: fb9e 9c3d 6b10 62bc 34e2 8dbd 9cc0 213d
00000130: 87aa 193e 81b6 9fbd 421c 70bd 7bd9 093e
00000140: fb1f adbe bf96 18bf ac5e bbbd 7f4d 6fbf
00000150: b261 473e d9b2 c63d 0f0b 853d 553c 093d
00000160: 3db0 003e f2f0 7e3e 65c4 d6bd 9e84 9a3d
00000170: ee8f 3b3d 83b2 1ebe ace9 153d d4fb d53d
00000180: 3f59 633d 4ed7 18be 339e cabd 4c6b 053e
00000190: bf6a 9f3d f1c1 823c 02b4 bb3d d385 febd
000001a0: a618 273e 7dd6 1fbc 0d69 a2bd 0d3c 93be
000001b0: 482f 1c3e 7414 9cba 508d a03c aa77 6a3c
000001c0: a1ee f7bc d9bc 0a3c 9a20 f0bc 840f 92be
000001d0: c28c 9bbd ffc9 51be 21e3 a03e 695f e13e
000001e0: b898 083f 706d 683d 6647 1abe 0c51 93bd
000001f0: e28f d83d 80d1 283e 5d6c 073d 78e6 87bd
00000200: 29e1 f1bd 5d59 37be cbd0 13be ff99 69bd
00000210: 47ee 303e 692c a5bc 4fae a4bd f5ed 09be
00000220: d727 48be 3e64 3abe 14be 07bd 4867 ff3d
00000230: 6cfe e63d 7e47 3bbe 0825 463e f3dc a03d
00000240: 0269 17be b63d 023e c00b cf3a c5d8 213c
00000250: 647a 2ebf 36aa b23e e5c2 603e 6093 9c3d
00000260: b78f 20bf 555c b3be 272b 2b3d 32c1 4f3d
00000270: e8ff b13d 03ba 373c 1be5 4ebd e216 d1bd
00000280: 19c9 213d 094f 9b3e 19b8 293e 7dbd eebe
00000290: 074b 103e 7e6a b5bd 0cae c5ba 1a64 dabe
000002a0: 7f61 cabd 9040 69bd ef11 4fbd 5587 163e
000002b0: 2a45 eb3d 8f55 f8be 03a3 3c3d f088 9e3d
000002c0: 6706 e7bc 1b0a 13be 2817 2dbc 860f 9e3b
000002d0: e728 ef3d 2ac1 3a3e df1a 673e 82b4 183d
000002e0: 142c ac3b b145 503d 30fa abbd 5450 9bbe
000002f0: f526 e43b 66b2 19bd 713d 613d 7608 593d
00000300: 0233 043e fd38 3bbe b5a7 8dbd 6912 833d
00000310: 3ae0 623e b155 a03d 415b 7f3d 1e0c eaba
00000320: 0608 933e f181 9dbe 82df 93be f8a2 2bbe
00000330: 0eae 7bbf 4a7a 3b3d 4ed6 493e e994 233d
00000340: 126b 1abe 6d37 e23d a5e0 77be f0dc 96be
00000350: 1b21 d03d 8519 003e fdd4 8d3c fb0f 083d
00000360: 0865 183e b404 7dbd 9939 37be 996a 943e
00000370: 6098 213e 19b7 08bd f1cd 09be 120e 65bc
00000380: 9b43 073e 44ae 423e 4c96 013f 9307 94bd
00000390: 589a c0bd 0053 003e 5756 9dbb 6439 773e
000003a0: bc38 86be 8e22 eabb f5c3 28be 1adb 17bd
000003b0: f039 9a3e f998 18be 43dd ae3b b303 3dbd
000003c0: 38a0 cebd 5c2b 1e3e f037 b1bd e730 b2bd
000003d0: a42c 86bd 86e2 0b3e 4d5a a13e 9cdb 2dbd
000003e0: c8a9 e0bd b729 973d bb29 633d 5e74 173f
000003f0: 99ba 91bd 05cc 03be 4d69 403d 5cab 8ebd
-0.052084062 -0.03416063 -0.050875332 -0.024609052 -0.032495413 -0.013752148 0.07260548 -0.0085909255
0.13280031 0.16739775 -0.10574917 -0.016953327 0.062341414 0.13173236 0.2027146 0.0020657969
0.022492502 0.04232041 0.042961944 -0.03694429 -0.094437025 0.052847624 0.071432665 0.070499
0.09058218 0.004844781 0.0076666838 0.096989214 0.16645522 0.118481636 0.24871708 -0.73118764
-0.70838106 -0.642585 -2.1500514 -0.001905817 -0.0015683045 -0.044055518 0.18648228 0.14121145
0.124554195 0.09058707 -0.20814206 0.12744978 -0.10662912 0.0874378 -0.06505938 -0.0028067383
-0.047739763 0.11788232 0.16889226 0.08374736 0.1114149 0.07957715 0.08539474 0.041723203
-0.13022818 -0.042405758 -0.02861052 0.02060004 -0.07910117 0.049787488 0.3687357 -0.45441362
-0.14503594 -0.16306415 -1.4869568 -0.22397387 0.117684595 0.16617484 0.05379523 -0.2463878
0.076475106 -0.01379786 -0.069279104 0.039490327 0.15006457 -0.07798482 -0.0586207 0.13461868
-0.33813462 -0.5960502 -0.091489166 -0.93477625 0.19470862 0.09702081 0.0649625 0.033504803
0.1256723 0.24896601 -0.10486678 0.07544826 0.04579156 -0.15497784 0.0365998 0.10448423
0.055505034 -0.14925882 -0.09893455 0.13029212 0.07784032 0.01596162 0.09165193 -0.12427869
0.16317996 -0.009755728 -0.07930193 -0.28756753 0.15252411 -0.0011907951 0.019598633 0.014310757
-0.030265154 0.008467876 -0.02931242 -0.28527462 -0.07595207 -0.20487212 0.31423286 0.44018105
0.5335803 0.056744993 -0.15066299 -0.07193193 0.105743185 0.16486168 0.033062328 -0.06635755
-0.11810524 -0.17905183 -0.14435117 -0.057031628 0.17278396 -0.020162778 -0.08041059 -0.1346968
-0.19546448 -0.18202302 -0.033140257 0.12470871 0.11278996 -0.18288991 0.19350064 0.07854643
-0.14786151 0.12718853 0.0015796348 0.009878342 -0.68155503 0.34895486 0.21949346 0.07645297
-0.6271929 -0.3503138 0.0417892 0.050721355 0.08691388 0.011213782 -0.05051146 -0.10209443
0.039498422 0.30333737 0.16574134 -0.46628943 0.1409112 -0.088582024 -0.0015081777 -0.42654496
-0.09881877 -0.056946337 -0.050554212 0.14700063 0.114878014 -0.48502776 0.046053898 0.077409625
-0.028201295 -0.14359324 -0.010564603 0.004823628 0.116777234 0.18237749 0.22568844 0.03728152
0.005254278 0.050847713 -0.08397329 -0.30334723 0.006962652 -0.03752365 0.054990236 0.052986585
0.12910083 -0.18283458 -0.06916753 0.06399996 0.22155848 0.07828844 0.062342886 -0.0017856394
0.2871706 -0.307632 -0.2888146 -0.16761386 -0.9831246 0.04577092 0.19710657 0.039936934
-0.15079907 0.11045728 -0.24206789 -0.29465437 0.10162564 0.12509735 0.017313475 0.033218365
0.1488229 -0.061772063 -0.17893066 0.28987578 0.15780783 -0.03337774 -0.13457467 -0.013980405
0.13209383 0.1901179 0.5061996 -0.07228007 -0.09404439 0.12531662 -0.0048015523 0.24142987
-0.2621516 -0.0071452325 -0.16481002 -0.037074186 0.30122328 -0.14902104 0.005336435 -0.046146106
-0.10089153 0.15446228 -0.08653247 -0.08700734 -0.06551483 0.1366063 0.31514207 -0.042445764
-0.10969883 0.07381003 0.05545972 0.5916194 -0.07115669 -0.12870796 0.046975423 -0.06966278

fc1.bias f4 [64]
00000000: 2435 4f3e d714 a8bd a147 adbd 334d 75bd
00000010: 9f39 b2bd 5a89 1cbe 137e 87bd 6385 38bd
00000020: 7c18 1abe b6c9 203d 8ffc 55bd 105d 06be
00000030: 1c91 b1bc 6f45 0abe 7106 ad3d 4b08 58bd
00000040: f21c 0ebe f922 aebc 3bec d6bb 8fbf e5bd
00000050: f31a 383d 06b4 e93b 3124 6b3d 553c 2a3e
00000060: ec01 acbd 71e3 cd3c 21a4 1ebe 953f 063e
00000070: 3eb7 083e 0b9c 22be 69f6 983d 94a8 f83d
00000080: ef63 373e bc8f 2b3c 2cc1 3e3d 7690 38bd
00000090: 61e4 433c 3191 26be aa76 533c a894 87bd
000000a0: d8de 823d c1f1 4c3e 1922 ddbd cfce fe3d
000000b0: ed07 173c 61ff 2c3d 354a 6b3e 32ff 1cbc
000000c0: 8edc 813d 4d06 183c 7a08 133e dd2e 97be
000000d0: f6de 1f3e 30bd 03bd 051c 7c3d c0c8 3dbd
000000e0: 267a aa3d 3498 843c 3255 abbd 3967 ed3d
000000f0: f726 cf3c 4b19 c4bd df3c 18be 2d30 cf3c
0.20235115 -0.082071 -0.08460928 -0.059888076 -0.087023966 -0.1528677 -0.066158436 -0.045049082
-0.15048403 0.039254867 -0.05224281 -0.13121438 -0.021675639 -0.1350305 0.08448494 -0.052742284
-0.1387823 -0.02125691 -0.0065589226 -0.112181775 0.044947576 0.007132056 0.05740756 0.16624577
-0.08398804 0.025132867 -0.15492298 0.13110192 0.13351151 -0.15879838 0.07468874 0.12141529
0.17909215 0.010471281 0.04657094 -0.045059644 0.011956305 -0.16266324 0.01290671 -0.06620151
0.0639016 0.20014097 -0.10797519 0.12441789 0.009218198 0.042235736 0.22977526 -0.009582328
0.063408956 0.009278846 0.14358702 -0.2952794 0.15612397 -0.032162845 0.06155016 -0.04633403
0.08324079 0.016185857 -0.08365859 0.11591954 0.025287135 -0.09575137 -0.1486697 0.025291527

fc2.weight f4 [64, 64]
00000000: a16f fa3e 9807 5abe 5159 58be 2053 453c
00000010: f3f4 c13d d07e e0bd 21fb 92bd 3668 8e3e
00000020: c05f 5fbe cdad 3bbf 1d39 bc3e 0b6c 02be
00000030: bac1 8a3c 4140 2dbe 1056 45be f14a 12be
00000040: 3340 58be 4539 1dbc 8f16 80bd 5a7a 743d
00000050: 92de 46be 6b3e 6a3e 0e9b 4fbd 5e53 10be
00000060: 5f00 26be 533a 033e 9f5d 023e 55a4 363e
00000070: ee3e b7bd 5e11 12be bdc3 193e 3c32 a03d
00000080: a181 d2be d3f7 f1bc f573 77bf ba71 a2be
00000090: 00d3 a2be 6a97 be3d d250 14be 7322 26bf
000000a0: d218 a13c 0bf7 993e e680 46bd 605f b8bc
000000b0: f313 5abe 6967 303c 4036 e7bd 71f5 f3bd
000000c0: bfe6 9d3d ec7c 01be a694 e5bd 1593 b93c
000000d0: 459c 52b9 652d 4cbd ff66 12bd 928d 51be
000000e0: 1d79 af3d e2d0 50be 84df d23d 330d 9cbe
000000f0: 495d 36be d189 2dbd c5ae 2abd 5cb4 cb3d
00000100: 3187 603e 0baa 663e 1739 e3be 7e24 1cbe
00000110: 4b12 183e 72c8 f83d f571 9fbe 9ca9 eabd
00000120: 429a 4c3e 4f91 6cbe 67e3 92bd f2ab 1fbe
00000130: 13a3 5a3e 9859 3abd 6e74 21be 6802 dcbe
00000140: 2809 8ebe 28a7 66be f9a1 1a3e 9856 1ebe
00000150: ec3e ee3e db88 fbbe 3f8a 1fbe d0d0 bf3b
00000160: 8f51 4bbe eec2 21bf 7050 283d bc06 1bbe
00000170: 1d9b f0be 8ed7 abbe 7610 183e dae3 6bbe
00000180: 044e 503e 6086 60bd 4fe6 fdbd 317c 32bd
00000190: 2f34 7bbd cd85 d7be 8db4 0dbf f3d1 ad3d
000001a0: f615 29be 6453 83bd 7b57 5d3e 5270 8abe
000001b0: 0dc2 0c3d 7a29 523e 9b5b 3fbd 0b46 fbbe
000001c0: 090f b0bd 2990 153e 0b81 103e fa41 f4be
000001d0: ec56 29be 84b0 87be 4427 533e 97fc d73e
000001e0: e53d f1bd c613 983d fe36 84be 1e91 f63d
000001f0: f423 4dbd cf5d afbe 778c 5d3d 6db3 5bbe
00000200: 2c1c 92bd 72f2 89be 5ad5 a2bd 3e63 cc3d
00000210: 1ead 633d 7cec 56be 761d 80be a056 98be
00000220: c3df 7ebd f2a2 dcbd 9c62 9fbe d08d 88be
00000230: 2529 b2bd 8008 6fbe 85fb 10be 2f3e b2bc
00000240: bd5c 4abe 3f79 85be 9596 963e c36c d1be
00000250: 2f84 0ebe ac50 b2be 97ca db3d 2850 8b3e
00000260: 49b8 d3be 72ba 87be 7e39 0bbf b73a debb
00000270: cc6b f03d 0c4c f7bd e1a7 b8bd 7e1d 8d3e
00000280: f1cb 863d 5f7c db3d a740 00be 4a2e 4bbe
00000290: 235e 72be 7abb efbe c1aa 27bd 107d dbbd
000002a0: c603 4dbe 645e bbbe 9ca2 0dbf 042a 763e
000002b0: f44d 82bd d6a9 ac3d e9eb 7bbe c916 3ebd
000002c0: b80f a4be 9152 8abd 6003 873d 483d 70be
000002d0: 07ae dd3d 7765 8b3d cedd d2bd d0cc 4abd
000002e0: 1a37 c33d 241d 9a3d f85e a6bd 5cf7 293e
000002f0: cd5e e23d 9055 163d e95a 8b3e 806b 7a3e
00000300: aa96 07be 0806 5dbe c233 a3bc 59ac 533d
00000310: 71db 19be 457e adbd 9041 2fbe f10b 833e
00000320: e0b3 b2bd 6560 dfbe d5f4 633e c315 2dbe
00000330: efa8 0f3e 9d6c 1dbe 22e7 a83e 61d6 84be
00000340: 938a 8abd d32b b63c 2afd 90bb b030 fbbd
00000350: e92c 45be f6fe 45bd ece0 6bbc 80c4 383d
00000360: 4c9d 8a3d 7909 3f3e 036b 003e c59d 423e
00000370: b4e6 84be e6c6 e8be aa25 563e dd29 3c3e
00000380: 8600 173e 9812 8abd ea21 36bf aaf5 cf3c
00000390: e095 873e 8e72 193e 1e29 5ebd e9f1 f0b9
000003a0: d8fd 4d3d 8b41 3e3e 16ba e1bd 973c 163e
000003b0: 8c3f dfbd 5a1d 5d3d f030 8dbe 9b81 85bd
000003c0: de70 e3bc b094 eabd 4ba5 df3d a532 9cbd
000003d0: dac1 87be fcce 043e cc70 4ebd 67d1 9e3c
000003e0: c87c a93e 19ed debe ebf8 fbbc 2d63 d5bd
000003f0: 68f8 fc3a a9e9 dabd 4024 3e3e 6d24 72be
0.4891329 -0.2129196 -0.21127822 0.012043744 0.094705485 -0.109616876 -0.07176805 0.27813882
-0.2181387 -0.73312074 0.36762324 -0.12736528 0.01693808 -0.16919042 -0.19271111 -0.142864
-0.2111824 -0.009596174 -0.06254303 0.059686996 -0.19420841 0.22875373 -0.05068498 -0.14094302
-0.16211079 0.12815218 0.12731026 0.17836125 -0.0894755 -0.14264438 0.15016074 0.078220814
-0.41114524 -0.029537117 -0.9666131 -0.3172739 -0.31801605 0.09306224 -0.14483956 -0.64896315
0.019665156 0.3007129 -0.04846277 -0.022506416 -0.21296673 0.010766842 -0.11289644 -0.119120486
0.07710027 -0.1264531 -0.11209993 0.022653142 -0.00020085376 -0.04984798 -0.035742756 -0.20464161
0.085680224 -0.20392182 0.102965385 -0.3047882 -0.17809023 -0.04236776 -0.04167058 0.0994651
0.21926571 0.22525804 -0.44379494 -0.15248296 0.14850728 0.12147607 -0.3114163 -0.11458132
0.1998072 -0.23102306 -0.0717228 -0.15592936 0.2135127 -0.0454956 -0.1576707 -0.42970586
-0.2774136 -0.22524703 0.1510085 -0.1546272 0.4653238 -0.4912785 -0.1558008 0.00585375
-0.19855331 -0.63188064 0.041092336 -0.15139288 -0.46993342 -0.33562893 0.1485003 -0.23036137
0.2034226 -0.05481565 -0.123974435 -0.04357547 -0.061329063 -0.4209427 -0.55353624 0.0848731
-0.16512284 -0.0641239 0.21615402 -0.2703882 0.03436475 0.20523635 -0.04671822 -0.49076876
-0.08596618 0.14605774 0.14111726 -0.47706586 -0.16537064 -0.26501858 0.20620447 0.42184898
-0.117793836 0.074256465 -0.25823206 0.12039398 -0.050083116 -0.34251258 0.054089036 -0.21455164
-0.071342796 -0.26942784 -0.0795085 0.099798664 0.05558502 -0.20988649 -0.25022477 -0.2975359
-0.062225115 -0.10773267 -0.3112992 -0.26670694 -0.08699254 -0.23343086 -0.14158447 -0.021758167
-0.1976194 -0.26069066 0.2941176 -0.4090329 -0.13917612 -0.34827173 0.10732 0.27209592
-0.41351536 -0.26509434 -0.543846 -0.0067819017 0.117393106 -0.12075052 -0.09016395 0.27561563
0.065818675 0.10717081 -0.12524663 -0.19841877 -0.23668723 -0.4682272 -0.040934328 -0.10717213
-0.2002097 -0.36595452 -0.5532625 0.24039465 -0.06362525 0.08430831 -0.24601711 -0.04640845
-0.32043242 -0.067540295 0.065924406 -0.23460877 0.10824209 0.06806462 -0.10296212 -0.04951173
0.09531994 0.075250894 -0.081235826 0.16598266 0.11053238 0.036702693 0.27217796 0.2445507
-0.13241068 -0.21584332 -0.019922141 0.051678035 -0.15025117 -0.084713496 -0.17114854 0.25595048
-0.08725715 -0.4362823 0.22261365 -0.16902833 0.14029287 -0.15373464 0.3298884 -0.25944808
-0.06764712 0.022237694 -0.0044247108 -0.12265146 -0.19255413 -0.048338853 -0.014396887 0.045109272
0.06768283 0.18655957 0.12540822 0.19005497 -0.25957263 -0.45464247 0.20912805 0.18375345
0.14746293 -0.06741828 -0.711455 0.025385696 0.26481533 0.14985105 -0.05423843 -0.00045956604
0.050290912 0.1857969 -0.11021821 0.1467155 -0.109007925 0.05398307 -0.275764 -0.06518861
-0.02776378 -0.11454141 0.10920199 -0.07626847 -0.26515085 0.12969583 -0.05040054 0.01938696
0.33103013 -0.43540266 -0.030758342 -0.10419307 0.0019300105 -0.106890984 0.18568516 -0.23646708

fc2.bias f4 [64]
00000000: def8 973d 0b21 0b3d 9c4c 8cbd a590 29be
00000010: 079a d43e 3e65 613e cf83 ddbd ef7f 83bd
00000020: e7e8 5c3d c180 773d 4e9e c23c a3ec 8abe
00000030: 441d ba3d 2ba4 123e 5113 753e 0a4e d83d
00000040: 3dd0 6ebe 4de7 3a3e 8eae 84be 9597 523e
00000050: b59e 013d d3af 283e fdbe 8c3e 38c7 2abc
00000060: ee24 583e 7dd2 c13e f92f 7abe 0198 82bd
00000070: 53cd 253f bebd 143e 436b 05bd 6c98 263f
00000080: c165 d73e 755f c8bd 59ca fe3d a15d 4f3c
00000090: 32e0 60bd 2869 babd ddce 073f 3887 c83e
000000a0: 0c13 34be 41f2 cabc 62bb 2c3f caab 96be
000000b0: 6c30 1b3e d003 febc 3806 1e3e 027a 353d
000000c0: a8ec 82be 11ef e53d 6ba5 65bd 43d0 4f3e
000000d0: 1fbf d7bd 0e2e ac3d 2792 773e 82f4 0cbe
000000e0: f854 9e3e 306e a9bd 4b4b 8fbd dbac 4a3e
000000f0: ccd0 31bd 8314 5d3d f2e7 17be d065 2b3e
0.074205145 0.03396706 -0.068505496 -0.16559084 0.41523764 0.22011277 -0.10816156 -0.06420886
0.05393305 0.060425524 0.023757126 -0.27133664 0.09087613 0.14320438 0.2393315 0.1056176
-0.23321624 0.18252297 -0.25914425 0.20565636 0.031645495 0.16473322 0.27489462 -0.010423474
0.21107838 0.37855902 -0.24432363 -0.06376649 0.64766425 0.14525506 -0.032572996 0.6507633
0.4206982 -0.09783832 0.124409385 0.0126566 -0.05490131 -0.09102088 0.53050023 0.39165664
-0.17585391 -0.024773719 0.67473423 -0.2942794 0.1515519 -0.031007677 0.1543206 0.04430581
-0.2557118 0.11227239 -0.056065958 0.2029429 -0.105345 0.08407222 0.24176846 -0.13765147
0.309242 -0.0827297 -0.06996783 0.19792502 -0.043412015 0.05397464 -0.14834574 0.16738057

fc3.weight f4 [4, 64]
00000000: 28c0 a03e 9b39 e3be 54dc 6ebe 01db a0be
00000010: 33a8 713e ed7e 5a3e 393a 87bd 4552 edbd
00000020: daae 99bd 2234 593d fe33 583e 6fb2 63be
00000030: 43eb 073e 1e87 a23e 34ea 513e ea21 e73d
00000040: d986 1abe 8e98 933d ee6a 09be 64d9 693e
00000050: 817a 5bbb 481e ff3d 0d4f 363b a9d0 4b3e
00000060: 908e 553e 2472 d03d 92c0 78be 2478 2cbd
00000070: baa2 8c3e 14f9 1e3e 6a18 913e e485 473e
00000080: 6509 1b3e 65ba 183e 23a7 313e 14f0 a23e
00000090: 1729 bcbd 070f 49be ec79 703e 1faa 343e
000000a0: b813 8abd c12d 67bc bd0c 753e 7409 77be
000000b0: 743f 5e3d c6f3 2dbe 41f8 ce3d 7f82 e63d
000000c0: 9f0b 4dbe 6be8 dc3d b6d0 e7be 2cae ce3e
000000d0: befc de3c c725 f43d 8b4e c63e b0c2 5b3d
000000e0: 7073 443e eca4 1c3c 4367 42be 440d f13e
000000f0: 1449 903e 2e01 253e 0dfb c3be 3aa2 253e
00000100: 15fd ab3e 940d d5bd efb3 e73e 21d5 d4bd
00000110: 75d1 973e cb0c 7d3e c395 8f3e 14c1 81bd
00000120: 4d9c bcbe ce2e 043e eac7 b83d 95ce 02be
00000130: 4e51 333e 427e 8a3e 83f8 a33e 3b42 5f3e
00000140: f644 fdbd 6035 863d b51c 1bbe 50da e43d
00000150: 86d1 e2bc e834 013e fa2e fe3d 1548 933e
00000160: ac14 043e b4a7 0d3e 7b11 ba3a e696 c3bd
00000170: 884d 553e 280c 0e3e 34f4 fa3e 8d7c 673e
00000180: d6f7 1f3e 3906 973e 0145 413e 4dfc c93e
00000190: f6ec 95be 9b6f 89be 6289 453e 7580 0e3e
000001a0: 4fb6 053e b89b e0bd b793 623e 2a84 7dbe
000001b0: 56e3 913e 23a9 5cbe e1f4 fe3d ce34 683e
000001c0: eda0 c5bd 9a22 833e c5d1 29be b6a2 ce3e
000001d0: b724 26be 75e6 4a3e 5174 a13e 5730 c0bc
000001e0: 8281 7b3e d130 d7bd 6319 9fbc bc89 ca3e
000001f0: 9484 6d3e 3b36 ae3e 1f03 ea3c b8ca 4f3e
00000200: ae08 323e 0db8 fdbc e774 85be 291c 8ebe
00000210: d177 7a3e 28ca 6f3e 1be2 273c 4363 ab3d
00000220: 85bb 44be 93d8 9c3e 59ef d43d 6658 f4bd
00000230: cd5d 333e cdda e43a 50ca 083d 652e cc3e
00000240: bde2 0abe b422 78be 497f 2a3e d889 0b3e
00000250: 8a12 13bc fa23 9f3d 8062 563e 899c c93e
00000260: 16c9 6b3d aebe 5d3e 7886 30be d3f9 43bd
00000270: 0d66 223e 8c14 f13e 835c 183f e660 613e
00000280: 154a 6e3e a121 90bd 7e11 253e af75 d23e
00000290: 0994 d1bd 5b1d e73c 2504 2d3e b206 513e
000002a0: 41b7 0c3e 5258 873e 0f6e 843e 2533 d0be
000002b0: f10d 6e3e c8f4 52bd 4899 a03c abac aa3e
000002c0: 4d2a 72bd 8680 2d3f 1f1e d4be e711 ac3d
000002d0: eb70 09bf edcf 8bbd 26d1 3e3e 564b b9bd
000002e0: 7140 e63c 3f11 883e c6a2 233b a41d c03e
000002f0: 7e73 f23e 4a71 ba3e b60e debe be4a 813e
00000300: 50b9 a03e 1103 b6be 14c1 8c3d 7f57 62be
00000310: 21eb aa3e ae75 533e 3ddb f73e 5bf6 24be
00000320: 2062 03bf 667a 963e 938e bebe 6df6 9dbd
00000330: 1a58 d03e 0413 243d 595b 3a3e f344 493e
00000340: a044 b5be 6065 5ebe c4e9 b33d 2b00 b4bc
00000350: f860 cf3e 2507 773e 310d 033e 2e91 8a3d
00000360: 05e9 a43a 913a 593e 14ca 3bbe 91a3 273e
00000370: 2a30 873e 6a54 1a3e 357e 84be e92a 503e
00000380: 8aff cc3d ee62 943e f041 c83e b96a 0f3e
00000390: 445f 33be f16f d8be cc7b 593e a821 4b3e
000003a0: a5be 2d3e 8c9a b93d 193a 903e 8598 a2bd
000003b0: 6649 193e 410b 9dbe 1dcc 8ebd be1d 11be
000003c0: 444e 7dbe c8ab 8a3e 3eff 18be ad7e c83e
000003d0: fe46 8bbe 2af1 55bc ce71 643e 167b 65bc
000003e0: 4a59 e43d d01a f6be 105d 3c3d a20d e53e
000003f0: 21a9 803e c478 f13e 18ba c8be 435c 073f
0.31396604 -0.44379887 -0.23326236 -0.31417087 0.23599319 0.21337481 -0.06602902 -0.11587957
-0.075040534 0.053028233 0.21113583 -0.22236036 0.13273339 0.3174371 0.20499498 0.112857655
-0.15090503 0.07206832 -0.13419697 0.22836834 -0.0033489766 0.124569476 0.0027818114 0.19903816
0.20855165 0.101780206 -0.2429221 -0.042106763 0.274679 0.15524703 0.2833894 0.19484669
0.15140302 0.14914854 0.17348914 0.3182379 -0.09187525 -0.19634639 0.2348401 0.17643021
-0.06742042 -0.01411003 0.2393064 -0.241247 0.054259732 -0.16987523 0.101059444 0.11255359
-0.20023964 0.10786518 -0.4527642 0.40367258 0.027220126 0.11921268 0.387318 0.053652465
0.19184661 0.009560805 -0.18984704 0.47080433 0.28180754 0.16113731 -0.38277474 0.16175166
0.33591524 -0.104029804 0.45254466 -0.103922136 0.2965199 0.24711911 0.28043947 -0.06335655
-0.36837998 0.1290848 0.090225056 -0.12774117 0.17511484 0.27049452 0.32025537 0.21802609
-0.12366669 0.06553149 -0.1514767 0.11174452 -0.0276878 0.12617838 0.12411304 0.28765932
0.1289851 0.13833505 0.0014195883 -0.09550266 0.20830357 0.13871825 0.49014437 0.22606106
0.15621886 0.29496935 0.18873979 0.39450303 -0.2928235 -0.2684296 0.19290689 0.1391619
0.13057826 -0.10967201 0.22126661 -0.24757448 0.28493756 -0.21548896 0.12449051 0.22676393
-0.09649835 0.25612336 -0.16583927 0.40358514 -0.16224943 0.19814475 0.31534055 -0.02346055
0.24561122 -0.10507358 -0.019421285 0.39558208 0.23195106 0.3402575 0.028565941 0.20292175
0.17386124 -0.030971551 -0.26065752 -0.2775586 0.24459769 0.2341696 0.010246779 0.08368542
-0.19212158 0.30633983 0.103972144 -0.11930923 0.17516251 0.0017460227 0.033396065 0.39879146
-0.13563056 -0.24231988 0.16650118 0.13626802 -0.008976588 0.07770534 0.20936012 0.3937724
0.057564817 0.2165477 -0.17238796 -0.047845673 0.15859242 0.4708599 0.5951616 0.2200962
0.23270448 -0.07037664 0.16119954 0.4110541 -0.102333136 0.02821224 0.16896112 0.2041271
0.13741781 0.2643457 0.25865218 -0.4066402 0.23247506 -0.051502973 0.01960434 0.3333486
-0.059122372 0.67774236 -0.4142923 0.08401852 -0.53687924 -0.06826768 0.18634471 -0.09047572
0.0281069 0.26575658 0.0024968847 0.37522614 0.4735374 0.36414558 -0.433706 0.25252336
0.31391382 -0.35549214 0.06872764 -0.2210369 0.33382514 0.2065036 0.48409453 -0.16109602
-0.513216 0.29390258 -0.3721815 -0.077130176 0.40692216 0.040057197 0.18198909 0.19655208
-0.3540392 -0.21718359 0.08784822 -0.021972736 0.4050367 0.24123819 0.12798001 0.06765972
0.0012581652 0.21213748 -0.18338805 0.1637099 0.26403934 0.15071264 -0.25877538 0.20328869
0.10009678 0.28981727 0.39112806 0.14005555 -0.1751681 -0.42272905 0.21238631 0.19837058
0.16967256 0.090626806 0.28169325 -0.07939247 0.14969406 -0.3067265 -0.06972525 -0.14171502
-0.24736887 0.27084184 -0.14941117 0.39159146 -0.272026 -0.013057986 0.22309038 -0.014006397
0.11149843 -0.4806733 0.04598719 0.44736964 0.25129035 0.4716245 -0.39204478 0.52875155

fc3.bias f4 [4]
00000000: 99fe ed3e 2997 b33e ec2c d83e 4593 ae3e
0.46483305 0.35076264 0.42221773 0.34096733
